mnist_best_model.pth (torch, 735650 bytes, 77 tensors)

conv1.weight f4 [16, 1, 3, 3]
00000000: 0e7f 8c3c 44ef 7f3e 3e9e 213e 9576 d03d
00000010: ee9c 2e3e 804d 68bd a59b a73c f6d0 8cbe
00000020: 732d 7bbe e633 4f3c 1f6c 0b3e 94de 333d
00000030: 581d 94be 1807 8b3d 30e6 a73e f77b 65be
00000040: b762 bc3d 7199 7f3e b294 78bc b883 e43d
00000050: 3a0d 083e 6b8c 0dbe f0d0 88be 9735 6abe
00000060: c466 413e bca6 d43d 94cd e33c b195 613e
00000070: 203f 663d 8f34 16be 113a cd3d e007 353b
00000080: cf4c 3abe 3987 053e 9012 0abe 1a58 6ebe
00000090: c6b9 a4bd 6c7a 3ebd bf59 383e 9a27 e3bd
000000a0: d928 d3bd 2868 1f3d cd80 b1bd 5f8f b6bd
000000b0: 8d40 373d 7307 f23d 7160 733c aa6c 44bd
000000c0: 8876 e8ba 6d79 5d3e ee2e cf3d f81e fc3d
000000d0: 5ad1 073e faf4 723c bc7b a8bd 7788 14bc
000000e0: d06b f23d c32f 43bd 6b61 c6bd 5973 cfbb
000000f0: 0694 25bd 3232 a3bd 2ccb c7bd d0ee 4d3d
00000100: 19e3 d8bd 9e1d 12be d6a7 39bd 44c7 68be
00000110: bb20 26bd c326 15be 18bf 91bd 65cf ef3d
00000120: c154 f8bd 1d30 1cbe cdf8 833d 6532 39be
00000130: 023b 1dbd e08c 543d d7cc 22be b46b 423c
00000140: 3aa9 1d3e 67d5 a53e a7aa 9abe d5a7 c1be
00000150: 045b ac3d a4ac 8fbe c675 da3c 3d42 a43d
00000160: 1abe 373c f149 9a3e d1ec 08be 89b1 3abe
00000170: 6ff0 84bd 4859 a5bc 41e8 76bd ee52 7b3c
00000180: c817 2d3e 2462 673e c61f bc3d 0063 ca3d
00000190: b4a6 2b3e ff69 4d3e ccb4 453e 21cc fb3d
000001a0: 01c1 803e 7354 abbe fda2 f7be 5aff 043d
000001b0: 8ba3 703d a0ec 5dbd 0d01 d3bd 8492 b93d
000001c0: c513 56be a5ac 99bd aa7c eabd f925 42be
000001d0: 6318 983d 1824 f3bd 90e7 e1bc fedc edbd
000001e0: 3cab 823b 2919 00bd 6b54 c5bd fc13 f23c
000001f0: 3754 30bd 09e9 19bd 45cd 8cbb 8972 80bd
00000200: baf0 903b 748f 6dbd b612 21bc 97e7 97bd
00000210: 06cd b0bc 4957 cab9 df1d b8bd 0701 b13d
00000220: 2100 77bd 990d 51be 0f1f 853e f0bd 903e
00000230: fa34 64be ffd6 903d 911f b93d dc8b e7bd
0.017150428 0.24993616 0.15783021 0.10178868 0.17052051 -0.056714535 0.02045996 -0.27503175
-0.24529056 0.012646651 0.13615464 0.04391344 -0.28928638 0.067884624 0.32792807 -0.2241057
0.09198516 0.24960877 -0.0151721705 0.11157936 0.13286296 -0.13823096 -0.26721907 -0.22872005
0.18886858 0.103833646 0.027807988 0.22029759 0.056212544 -0.14668487 0.10020841 0.0027623102
-0.18193363 0.13039865 -0.13483644 -0.23275796 -0.08043246 -0.04650347 0.18002985 -0.11091538
-0.103105254 0.03891769 -0.08667145 -0.089140646 0.044739295 0.11817827 0.014854536 -0.047955193
-0.001773552 0.21628352 0.10116373 0.12310594 0.13263455 0.014828915 -0.082267255 -0.009065739
0.1183697 -0.04765297 -0.0968655 -0.006330889 -0.04042437 -0.07968558 -0.09755549 0.050276577
-0.105901904 -0.1426911 -0.045326076 -0.22732264 -0.040558558 -0.14565568 -0.07116526 0.11709479
-0.121255405 -0.15252729 0.06443939 -0.1808563 -0.038386352 0.05189216 -0.15898453 0.011866499
0.15396586 0.32389376 -0.30208322 -0.37823358 0.08415797 -0.28061402 0.026667487 0.080204464
0.011214757 0.30134538 -0.13371588 -0.18231787 -0.064911716 -0.020184174 -0.06028009 0.015339596
0.16903603 0.22596031 0.09185748 0.09882164 0.16762811 0.20059966 0.1930725 0.12294794
0.2514725 -0.33462867 -0.48366538 0.032470085 0.058749717 -0.05418074 -0.10302935 0.09061149
-0.20905979 -0.075036325 -0.11449559 -0.18959798 0.074265264 -0.11872119 -0.027576238 -0.116144165
0.003987698 -0.031273995 -0.09635242 0.029550545 -0.043049064 -0.037575755 -0.004296931 -0.06271846
0.004423228 -0.057998136 -0.009831121 -0.07417219 -0.021582138 -0.00038593475 -0.089900725 0.08642774
-0.060302857 -0.20415343 0.26000258 0.2826991 -0.22285834 0.07072257 0.09039224 -0.11305973

bn1.weight f4 [16]
00000000: 7abf 863e 8a39 9f3e eb4a 383e 387c 8f3e
00000010: 6e9f 883e 1255 ae3e 5fa5 9a3e 4a4e 813e
00000020: 7960 873e 960c dc3e 059c 803e 63e0 ce3e
00000030: f17b a33e e4e2 5d3e 38c0 863e 9715 9b3e
0.2631796 0.31098586 0.17997329 0.2802446 0.26684135 0.34049278 0.30204293 0.25255042
0.2644079 0.42978352 0.25119033 0.40405568 0.31930497 0.21668583 0.26318526 0.3028991

bn1.bias f4 [16]
00000000: fb1e 33bc d659 9ebb 18cd 3b3d 0c80 263c
00000010: 6963 db3d 4c24 d7bd 4494 9a3d 8c9b 7d3d
00000020: 04b1 ac3d a254 d93b dc00 5ebd 5e3e 343e
00000030: e086 fe3d 9feb 993c ba32 ba3c fc66 333d
-0.010932679 -0.0048324866 0.04584989 0.010162365 0.1071232 -0.1050497 0.07547811 0.06191592
0.084322006 0.0066324035 -0.05420004 0.17601916 0.12428069 0.01878911 0.022729266 0.043799385

bn1.running_mean f4 [16]
00000000: 33b1 06ba 6909 b53b b7cb ff3b 7499 61bb
00000010: 5253 d2ba 9b36 0a3c 9564 a0bb b591 cbbb
00000020: 72f2 98bb 1584 283c 7bfe 593b 1729 083a
00000030: 0d5b a8bb 3079 15bc 93f5 bdbb a1f5 73bb
-0.0005138099 0.0055248034 0.007806267 -0.003442374 -0.001604656 0.0084358705 -0.004894803 -0.006212438
-0.0046675736 0.010285397 0.0033263254 0.0005194111 -0.005137807 -0.009123132 -0.005797097 -0.0037225264

bn1.running_var f4 [16]
00000000: 87fd 833e 29f1 bc3e 13e1 543d e12b 873e
00000010: 8262 f03d 448c a83e 1625 ce3d dcc2 a03e
00000020: 55b8 533e aa9c 793e 29c3 153e a447 b83e
00000030: ab5e 813e 00c7 093e 44de 883d 991d 693e
0.25779364 0.3690274 0.05197246 0.26400664 0.11737539 0.32919514 0.10065667 0.31398666
0.20675786 0.24376169 0.14625229 0.35992157 0.25267538 0.13454819 0.06683019 0.22765197

layer1.0.conv1.weight f4 [16, 16, 3, 3]
00000000: 0b85 a6bd 5016 bcbd 185c 9abd 032a a8bd
00000010: f7e8 bbbd 6518 993c df60 64bd 966d 47bd
00000020: aaa7 c1ba 808d 3fbd cc80 8dba 01a4 183e
00000030: d8c3 853c 4d60 0a3d 15a5 543d 14ff 3cbd
00000040: a02c 0bbd a14b 9a3c d67d edbb 04f3 b6bb
00000050: bf08 47bd 265c 2d3c 7ef2 18bd ed94 cdb9
00000060: 27f9 0f3c bcc2 a43b ecd6 053d 8c35 07bd
00000070: e5d3 d8bc a390 8dbd 0089 3bbd 55f8 5ebd
00000080: 7425 a8bd 49d0 49bd 6035 41bd db9a 2ebd
00000090: bd51 b33b 9a9e 8e3c c238 db3c 0977 f23c
000000a0: 07fd eb3c 3185 813c ca9f 9f3c add7 3b3d
000000b0: 0d68 103d d1e4 d23c b61a 8e3a 9829 cc3c
000000c0: d562 e83c ee55 fb3b 4af6 673c e825 04ba
000000d0: 616c b63b ca64 7abc 7563 0e3d e424 e3bc
000000e0: 1480 79bd 5633 ab3c 7613 fabb 1adb 56bc
000000f0: ebde 293d 8c12 ed3c 9a49 8b3c a0e5 873c
00000100: bde4 233d dc96 f83c ca52 fa3b 4497 07bc
00000110: 0037 0fbd 019d 523c 2e31 2d3b 19e4 33bd
00000120: 2385 7dbc bf35 3b3d def5 d63d 637a 70bc
00000130: 3542 c93c f5b1 a13c e8b1 b6bc dd50 b3bb
00000140: c1fa a0bc 3325 7cbd d13b b83d 17d0 6c3d
00000150: 334d b6bc e5f6 8b3d 73df 633d 8d92 84bd
00000160: 02f3 79bd 1c93 21bd 5b36 02be 5173 05bd
00000170: f608 403d c686 00bd 4650 933c d733 233d
00000180: 173b a3bb f8a5 eebc 1539 a8bd 7227 8fbd
00000190: 405a 6dbd aa0f cbbd e515 1bbd fa54 133d
000001a0: d795 6f3d 3aa6 c2bd 4213 7b3c dc08 103d
000001b0: 5676 193d 8157 1d3d 0711 30bb 7ce7 573d
000001c0: e1ab 65bc 3bf1 14bd 37fe ad3c 09db e6ba
000001d0: f6e5 4ebd caeb 013d c183 a73c 9028 d6bb
000001e0: ae3f 233d dc20 85bc 57f6 0bbd f738 0b3c
000001f0: b0e2 28bc 9311 1dbd 1145 cf3c ae5f 00bd
00000200: cdd9 2cbd 7311 953c 9db7 b0bc 1387 76bd
00000210: 7eff 0f3d 7079 57bc cd73 b5bc 51f2 483c
00000220: d8c3 063d b08f a4bd 9769 c8bc 85f5 043d
00000230: eac3 3e3c 92f9 86bd 927d f5bc 1b69 153d
00000240: 3e22 5cbd c94e 1639 7728 6f3d a207 4bbd
00000250: 1318 41bd 6edc a9bc 2906 783b cb26 1e3c
00000260: 7b44 64bd b2d2 1abd 8005 91bc 10b9 a23b
00000270: d661 60bc d24e 73bd d59f 92bd 505f 7f3c
00000280: e9ca cabc ecb1 6d3c 69e8 3f3d a650 803d
00000290: 4315 083d 50d2 c4bc cc96 99bc 288b 153c
000002a0: 1f90 edbc 76c5 c6bc a7db 5ebc cd02 2fbc
000002b0: fbc7 e0bc 914e bdbc 6e3b 043c 806b 92bc
000002c0: 4083 08bd ba00 c93d 546b 4b3d bef8 05bd
000002d0: b73d 9a3c 1b58 0e3d 1455 df3c e77c 273b
000002e0: a7e6 033d a0e5 063d 3b59 363c 2ad2 8d3c
000002f0: 9b71 d83c 397b ccbc 0d45 85bc e71e 17bc
00000300: ec22 633c e6ed 1cbc e9bb 2dbd 1d8a 9b3d
00000310: 24e5 f93c 75dd 84bc a422 013d 926b de3c
00000320: 68d4 ea3c 6b19 023c f4d0 eb3c 89a6 2d3d
00000330: 464e a6bb 3d97 593b 95dc c8bb f658 08bd
00000340: 0e99 d4bc dfe2 bdbc da56 98ba 2268 04bb
00000350: 8a9a 813b 038c 1b3d 2c49 263c 32ed 093d
00000360: 24da 71bc eff2 afbc 3eb5 44bd aa5c 4bbb
00000370: cc32 15bc 6826 ccbc 4b4d 8c3c 7fa3 583b
00000380: a9bf a33c d768 d6bc daa6 a0bd 08d7 90bd
00000390: d6d4 243c c853 9abd 44e2 a6bd 5c27 033d
000003a0: 11cd c63b ab23 513d d484 8b3c 6630 cdbc
000003b0: f691 7bbd a0a2 263d bf85 a5bc 5b5a 6dbd
000003c0: 0ff1 edbc a7c3 1abd dcdd 29bc 4a23 29bc
000003d0: 55f2 353d cbec d33d 61a6 62bd 7fe2 88bd
000003e0: 01f3 13bd b67b 71bd faed 91bc 63d4 0a3b
000003f0: 08eb 94bc 5f59 66bc c9b8 85bc 6def 633b
-0.08130845 -0.09183943 -0.07537097 -0.08211138 -0.09175294 0.01868839 -0.055756446 -0.048688494
-0.0014774699 -0.046765804 -0.0010795831 0.14906313 0.016328737 0.033783246 0.051915247 -0.0461417
-0.033978105 0.01883489 -0.007247667 -0.005583169 -0.048592325 0.010581052 -0.037340634 -0.00039211605
0.00878743 0.005028097 0.03267567 -0.03301005 -0.026468227 -0.06912353 -0.04578495 -0.054436047
-0.082102686 -0.0492709 -0.047170043 -0.04262815 0.0054723904 0.017409611 0.026760463 0.029597776
0.028807176 0.01581058 0.019485373 0.04585998 0.03525548 0.025743874 0.0010841701 0.024922177
0.02836744 0.0076701557 0.014157841 -0.0005041049 0.005567119 -0.015282819 0.03476282 -0.027727552
-0.06091316 0.020898502 -0.0076317145 -0.013113761 0.041472357 0.028939508 0.01700287 0.016588986
0.040013064 0.030345373 0.0076392638 -0.008275811 -0.03496456 0.012854815 0.0026427018 -0.043918703
-0.015473637 0.045705553 0.10496114 -0.014677617 0.024567703 0.019738177 -0.02230163 -0.005472286
-0.019650819 -0.061558913 0.08995784 0.057815637 -0.022253608 0.06834201 0.05563302 -0.06473265
-0.061022766 -0.039446935 -0.12716047 -0.032580677 0.046883546 -0.03137853 0.017982613 0.03984436
-0.0049814093 -0.029131874 -0.082140125 -0.069899455 -0.057947397 -0.09915097 -0.037862677 0.03596971
0.058492508 -0.095043615 0.015324416 0.0351647 0.03746637 0.03841353 -0.0026865618 0.052710995
-0.01401803 -0.036362868 0.021239383 -0.0017612885 -0.050512277 0.031719007 0.020448567 -0.006535597
0.03985565 -0.01625102 -0.034170475 0.008497468 -0.010307953 -0.03834684 0.025301488 -0.031341247
-0.0421999 0.018196797 -0.021571929 -0.06018741 0.035155766 -0.013151512 -0.022149945 0.012264804
0.032901615 -0.08035219 -0.024464412 0.03246071 0.011643389 -0.065905705 -0.029967103 0.03647719
-0.053743593 0.00014334465 0.0583882 -0.049567826 -0.0471421 -0.020734992 0.0037845469 0.009652804
-0.05572937 -0.03779859 -0.017702818 0.004965909 -0.013695201 -0.05940134 -0.07159392 0.015586689
-0.024754958 0.014507752 0.046852503 0.062653825 0.0332234 -0.024026066 -0.018748663 0.009127416
-0.028999386 -0.024264079 -0.013602174 -0.01068182 -0.027439108 -0.023108752 0.00807081 -0.017873526
-0.033328295 0.09814592 0.049662903 -0.032707922 0.018828256 0.034751993 0.027262248 0.0025556625
0.03220239 0.03293383 0.011129673 0.017312128 0.026421359 -0.0249611 -0.016268278 -0.009223676
0.0138633065 -0.009578204 -0.042415533 0.075947024 0.03050477 -0.01621888 0.031527176 0.027150903
0.028665736 0.00794063 0.02878616 0.04239515 -0.005075249 0.0033201717 -0.006129811 -0.033287965
-0.025951888 -0.02317947 -0.0011622563 -0.002020367 0.00395519 0.037975322 0.0101492815 0.033673473
-0.014761481 -0.021478144 -0.04802441 -0.0031030574 -0.009106349 -0.024920657 0.0171267 0.0033056436
0.019988852 -0.026173038 -0.078443244 -0.07072264 0.01006051 -0.07535511 -0.081486255 0.032019958
0.0060669263 0.051059406 0.01703111 -0.025047492 -0.061418496 0.040682435 -0.020205377 -0.057947498
-0.02904561 -0.037784245 -0.010367837 -0.010323355 0.04442056 0.10347899 -0.055334453 -0.06683826
-0.03612042 -0.05895587 -0.017813671 0.0021183721 -0.018178478 -0.014059394 -0.016323464 0.003478016

layer1.0.bn1.weight f4 [16]
00000000: c45e 823e 4f67 823e 5e20 4e3e 4a1d 573e
00000010: 3198 593e b03f e03e 94a3 843e f658 833e
00000020: 1528 8b3e 0c9e 513e eaa1 a43e 01b2 4e3e
00000030: 75b9 9d3e f844 7c3e e564 7b3e e28b 463e
0.25462925 0.25469443 0.20129535 0.21007267 0.21249463 0.4379859 0.2590605 0.2565381
0.27179018 0.20470446 0.3215478 0.2018509 0.30805555 0.24635684 0.24550207 0.19389299

layer1.0.bn1.bias f4 [16]
00000000: d8d1 1a3d 0038 b63c 9fdd babd 4987 7b3c
00000010: fdc6 25be 75b6 463e b102 003c d119 d1bc
00000020: de74 c93c 8805 b1bd 41a4 553d 007b f8bd
00000030: 87e7 f1bc a7f3 fc3d d9b0 20bc 4835 a8bd
0.03779778 0.0222435 -0.09124302 0.015352079 -0.1618919 0.1940554 0.007813142 -0.025525006
0.02459186 -0.08643633 0.052158598 -0.121328354 -0.029529346 0.123511605 -0.009807789 -0.082132876

layer1.0.bn1.running_mean f4 [16]
00000000: 280d 69bd f5bd 513c a057 bdbd ebea 36be
00000010: 3b0c 713e df3f 44be 2aca 60bd 1ccb e4bd
00000020: 576d 49bd cc82 8c3e e21e f6be 1ffb 003e
00000030: f68d f3bc e738 c0be 1e85 073d 0f33 593d
-0.056897312 0.012801637 -0.09245229 -0.17863052 0.23539822 -0.1916499 -0.0548803 -0.111715525
-0.04917654 0.2744354 -0.48070437 0.12595795 -0.029730778 -0.37543413 0.033085935 0.05302721

layer1.0.bn1.running_var f4 [16]
00000000: 3878 4f3d 7610 543d 2607 0c3d 78e6 e13c
00000010: 96c9 d73d cac6 753e da63 443d 756b a03c
00000020: 3a92 803d a144 503d 0ad2 893d 228d 823d
00000030: e4b4 a33d c5dc ce3d 99d5 573d 874e 353d
0.05065176 0.05177351 0.034186505 0.027575716 0.10536496 0.24001613 0.04794679 0.01958249
0.062778905 0.0508467 0.06729515 0.06374575 0.079934865 0.10100702 0.052693937 0.044264343

layer1.0.conv2.weight f4 [16, 16, 3, 3]
00000000: a617 353d 5763 f23d 16b2 a03d e128 ed3c
00000010: b388 c83c a169 a33c 9b7a e3bd 6333 c4bd
00000020: e714 7bbd aac8 babc 4837 02bd f9b7 20bd
00000030: d634 253d cea5 983c 048c 2bbc b56e c23d
00000040: 399b 8f3d 35ea 623c 7d59 4fbc aa30 7c3c
00000050: 8fd0 8bbc 1c6e 81bd cb31 97bd 34c8 26bd
00000060: 088a aabc 1f8a d93c 5074 293e 4d9c 0e3d
00000070: 95cf 523d 0359 74bc 4511 2ab9 4c9d c1bc
00000080: 5e22 0fbd 1a7c 89bc 5456 6eb9 32d2 c23c
00000090: 23ef 663b d353 eb3a df3c 4c3c a472 47bc
000000a0: a202 663c fd7a 1ebc e8a0 63bd d3ac 6dbd
000000b0: 612b d1bd e008 b0bd 0034 9ebd 7341 e1bd
000000c0: 1849 c03a 0cc6 383c e008 b83c c38e 843d
000000d0: 5f60 f63d 92a9 4d3e fe28 ca3c 9a2c 3f3c
000000e0: 2147 08bd 74de 893c cb5d e5bb 6f2d 35bb
000000f0: 8297 673b 8ac6 033c 63e3 ffbb 3206 cf3c
00000100: 9fea 623d b292 6b3c ba56 4f3d a961 a73b
00000110: fde1 94bc 82cf 1d3c 36c0 d0bc 95ec 8dbd
00000120: 7b4a 02bd ed0e 25bd d1f2 03bd a32d 343d
00000130: cde4 7f3d b3f1 563d fb45 d43d 2c04 9e3d
00000140: 521f 063d ca8e 633d e69b 373d 0705 f33c
00000150: c76d 9038 2ad6 e7bc 49da a7bc cbbb 6fbd
00000160: c300 9bbd 591f 04bd f2d4 0c3e cb27 ab3d
00000170: 7ef6 933c 2cad 953d ad1a 41bd 7c13 54bd
00000180: 6cd0 71ba 8651 80bd fa4b 4fbd cb2e 603c
00000190: dbf8 823d 5e95 f0bc 16d7 393d 935e 71bd
000001a0: 8a40 82bd bf68 02bd 3d6a adbd 6eb1 193c
000001b0: 1a6e 9c3c 40ce 1fbc 3710 a8bc e463 343c
000001c0: fcfa 8e3c 78ea 7abb 80ea a03c 7f62 db3c
000001d0: e66b 7ebb fc8f 63bd d272 123e 9707 0e3e
000001e0: a6a9 a1bd 5fd0 12bc e9e9 87bd 5128 19be
000001f0: e5fa b6bd 90c7 62bd 37c8 293d d6aa f03c
00000200: 191a 1bbd 6643 223d 53a9 233d 82fa 02bd
00000210: 384b 71bd 9cef a0bd 1323 e1bd 9eba ccbc
00000220: d26d 11bd 3452 0f3b 8125 45bd b3cb 42bc
00000230: a398 9abd 330e 31bd 0009 43bb 683a b4bd
00000240: 676e a1bd 6cfd 0c3b 1dd5 213c 497d 55bd
00000250: ab0f 7b3c 34bd b1bb d94f 98bd 9a37 1dbc
00000260: a86a 7fbd 67c9 fbbb b7c1 02bd e06c dc3c
00000270: ab99 593c 867d 73bc b625 b13c a2b1 47bd
00000280: 8603 44bd fe41 273c d078 723d 9c05 c4bc
00000290: 311c a3bd f5c0 b73d c8b4 28bc a668 9cbd
000002a0: 3819 993d 6f48 ce3c 0449 27bd 0a2a 8cbd
000002b0: bba7 24bd a6eb 2f3d 8946 8fbd d688 81bd
000002c0: 510b 1fbd fbc3 85bb 6135 97bd acfd bcbd
000002d0: c483 a2bd 6707 2e3c 4028 703d 1ad8 8abd
000002e0: 0be9 f03b 1f63 f73d bfb1 63bc 61ea 843d
000002f0: aa96 e43d 7602 103e e4f5 21bd c109 7fbd
00000300: 304f 283e f476 83bd 9627 46be 670c a03d
00000310: ec59 6ebd 2b1d f4bd 326b adbc 3090 a3bc
00000320: 6b0e 203d 3151 64bc 4347 57bc 1634 ec3b
00000330: f263 10bd 269e 403a 733a a73c 87b3 0d3d
00000340: c9a2 2e3b 93a7 19bb df80 b53c 1d76 8e3c
00000350: b725 37bc 6d8e e8bc aafc 30bd 4c0a 0ebd
00000360: 5681 203d e0c7 76bc 0099 75bd f0c1 a7bc
00000370: 7bf0 36bd a8b0 23bd 2dc4 8bbd 640b 38bd
00000380: ee14 37bd 271f e83c d9ec e2ba 82e7 38bd
00000390: c6cc 893c 93a7 7f3b dc7b 57bd e2da 22bd
000003a0: ce9a 1cbc 1123 f9bc 9ee5 a23c 1099 283e
000003b0: fddc 953d 7214 f1bc 79a0 e33d 5765 d83d
000003c0: 6c33 acbc 00cc f2bc 7d04 ad3c 3b1c bc3c
000003d0: fe5c e43c 7956 01bc f707 a83d 63c5 573d
000003e0: 1905 08bd c208 293d 21a5 453d 591d b43c
000003f0: 0650 36bd 2e2e 473d 1d21 c13d 77e5 41bc
0.044212006 0.11835354 0.07846467 0.028950157 0.024479246 0.019947829 -0.111073695 -0.09580114
-0.06129923 -0.022800762 -0.031791 -0.03923795 0.04033359 0.01863375 -0.010470394 0.09493772
0.07012028 0.013849785 -0.012655613 0.015392462 -0.017067222 -0.0631983 -0.07382544 -0.040718272
-0.020817772 0.02655512 0.16548276 0.03481703 0.051467497 -0.0149138 -0.00016218897 -0.023634575
-0.034944884 -0.016782809 -0.00022729608 0.02378187 0.0035237751 0.0017954059 0.012465685 -0.012173329
0.014038714 -0.009672877 -0.055573374 -0.058026146 -0.10213352 -0.08595443 -0.07724762 -0.109988116
0.0014670221 0.011277687 0.02246517 0.06472542 0.120301 0.20084217 0.02467775 0.011668349
-0.03327096 0.016829707 -0.0069997064 -0.0027645489 0.0035338108 0.008042941 -0.007809089 0.025271509
0.055399533 0.014378237 0.05061982 0.0051080775 -0.018174166 0.009631993 -0.025482278 -0.0692989
-0.03180931 -0.040297437 -0.03221399 0.043988835 0.06247406 0.052476596 0.1036491 0.077156395
0.032744713 0.055556096 0.04482641 0.029665483 6.886903e-05 -0.028300364 -0.020489829 -0.058528703
-0.07568505 -0.032256458 0.13753107 0.08357199 0.018061873 0.073084205 -0.04714458 -0.051776394
-0.00092244777 -0.06265549 -0.050609566 0.013683031 0.06395122 -0.029368099 0.045371138 -0.058928084
-0.06359966 -0.031838175 -0.08467529 0.009380681 0.01909547 -0.009753764 -0.020515544 0.011010144
0.017453663 -0.0038286727 0.019643068 0.026780365 -0.0038821637 -0.055557236 0.14301613 0.13870083
-0.07893686 -0.008960812 -0.06636412 -0.14956786 -0.08934573 -0.0553661 0.041450705 0.029378336
-0.037866686 0.039615057 0.039956402 -0.031977184 -0.058909625 -0.07858202 -0.10993018 -0.02499133
-0.035505123 0.0021869065 -0.04813147 -0.011889386 -0.075486444 -0.043226432 -0.0029760003 -0.088002026
-0.07882386 0.0021513356 0.00987747 -0.052121434 0.01532356 -0.005424166 -0.07437105 -0.009595776
-0.062357575 -0.007683921 -0.031923022 0.026907384 0.013281266 -0.01486147 0.021624427 -0.04875339
-0.047854923 0.010208605 0.059197247 -0.023928456 -0.079643615 0.089723505 -0.010297008 -0.076371476
0.07475513 0.025181023 -0.040841118 -0.06843956 -0.040199023 0.04294934 -0.069958754 -0.063249275
-0.03882915 -0.0040822006 -0.07383228 -0.092280716 -0.079352885 0.010621882 0.058632135 -0.06779499
0.0073519996 0.12079453 -0.013897358 0.06490017 0.111615494 0.14063439 -0.03954114 -0.06226516
0.16436458 -0.06419173 -0.19351038 0.078148656 -0.058191225 -0.11919626 -0.021169279 -0.019966215
0.03907625 -0.013935373 -0.013139549 0.0072083576 -0.035251565 0.00073477847 0.020413613 0.03459504
0.002664732 -0.002344583 0.022156177 0.017390305 -0.0111784255 -0.028388226 -0.04320971 -0.03467779
0.039185844 -0.015062302 -0.059960365 -0.020478219 -0.044662934 -0.039963394 -0.06824527 -0.044932738
-0.044697694 0.028335167 -0.0017313018 -0.045142658 0.016821276 0.0039009794 -0.052608356 -0.039759524
-0.009558393 -0.030412229 0.01988488 0.16464639 0.07317541 -0.029428694 0.11114592 0.10566204
-0.021020614 -0.02963829 0.021120304 0.02296268 0.027876373 -0.007894152 0.08204644 0.052678477
-0.033207987 0.041268118 0.048253182 0.02198665 -0.04450991 0.048628025 0.09430144 -0.011834494

layer1.0.bn2.weight f4 [16]
00000000: 8aef a13e 2b20 ce3e f63f b33e d9e9 aa3e
00000010: 5a49 403e cb00 9b3e c75e 8b3e add0 8b3e
00000020: ab4b 503e 5c5b 2a3e edd4 983e 60b2 803e
00000030: da90 b73e ba3d 863e b132 773e 4aee 513e
0.31628066 0.40258917 0.35009736 0.33381537 0.18777981 0.30274042 0.27220747 0.27307644
0.20341365 0.16636413 0.2984995 0.2513609 0.358527 0.2621897 0.24140431 0.20501056

layer1.0.bn2.bias f4 [16]
00000000: 582d 30be 469d c7bc f890 c6bd c8e3 f7bd
00000010: e2d0 8a3c 2d0c 0b3e 0e2d 103d f03d 883b
00000020: ed85 153d 3708 533c 457e 813d 868f 12be
00000030: c5d1 713b d828 89bb 4269 70bd fc65 f03d
-0.17204797 -0.024366986 -0.09695619 -0.12103993 0.016945306 0.13578863 0.035199217 0.004157774
0.036504675 0.012880377 0.06322912 -0.14312562 0.0036898714 -0.004185777 -0.05869413 0.11738202

layer1.0.bn2.running_mean f4 [16]
00000000: ff60 003d eefa cfbd fc9b 1ebc 8a88 31be
00000010: d40c cc3d 9ebb 4cbe 6314 8d3b b0a8 b0bd
00000020: cb42 27bd 42fd 29be 88fa 3a3d 5de9 18bd
00000030: 3492 debd 73f8 62bd b4de 203d 6623 24be
0.031342503 -0.10155283 -0.009680744 -0.17337242 0.09963384 -0.19993445 0.004305409 -0.086259246
-0.040835183 -0.16600516 0.04564908 -0.037331928 -0.1086773 -0.05541272 0.039274886 -0.16029128

layer1.0.bn2.running_var f4 [16]
00000000: 36e5 823d 60f9 573d 06d3 363d 16ba 073d
00000010: 62b0 d33c a07b 963d b8a4 f23c 6f5b 8d3c
00000020: 0406 0c3d 0193 e83c 362a 373d 9f31 fa3c
00000030: 5284 503d caac 9b3c 75a6 f73c 4ca0 c33c
0.06391375 0.052728057 0.04463484 0.03313645 0.025840942 0.07347798 0.02961956 0.017255513
0.034185424 0.02839041 0.04471799 0.03054124 0.05090744 0.01900329 0.03023074 0.023880146

layer1.1.conv1.weight f4 [16, 16, 3, 3]
00000000: a2a7 743c 2eaa 583b 9f9a 05bd 015b fbbc
00000010: 4020 02bd 2c93 1cbd 3dec 84bc 3a47 05bd
00000020: 793b 5fbd 3027 47bb 8c1a 71bd 20d8 a0bd
00000030: 727d 273d 69c7 86ba c83f 8ebd cf77 7f3d
00000040: df26 cf3b 8111 2cbd 40e0 2b3d 0b78 643d
00000050: dcc4 c73c 2173 2e3a 07d2 d1bb 08c8 2cbb
00000060: 26d8 86bc 42fc f8bc 154a 55bc 7fbb 9f3b
00000070: 6165 71bc 8104 15bd 4bd6 a9bb 4493 5bbc
00000080: 3857 7cbc b01c 703b 44c2 d33a 6082 c9bc
00000090: 9e92 c9bc ee3c 95bc af23 29bc d54e e63a
000000a0: 2d96 6cbc f2d0 06bc bd80 9fbc 47c5 4dbc
000000b0: 0c6f 203c fdd7 b7bb 0965 ccbc e50e 73bc
000000c0: e0ff 0e3d 54cb 01bc ad7c b8bb e119 ee3c
000000d0: 82a1 67bc 2bde 53bd 7a0f 9fbc 591d 873a
000000e0: 10e3 ec3b 6e3a 523b f5fc 53bb 00ac 0c3d
000000f0: fadc 14bb f2a0 d93b 071f 0d3d d7e7 9539
00000100: d750 003d 8b71 393d b4ca 2b3c 0133 923c
00000110: f506 b43c bdb2 8f3a 03d6 323c 3a4b bb3c
00000120: 04ca 14bd 164b 35bc 23c5 f83a 6f3f d8bc
00000130: dd5a e5bb da28 093c 3918 76bb b904 91bb
00000140: 2201 393c 3d2a 803a bb91 c1bc 8994 bcbc
00000150: a048 aeba b353 dcbc 13f7 f1bc 9f5c 303c
00000160: e9ce 22bc 24f3 2cbd 67a8 6c3c 2a67 d93c
00000170: 5148 9e3c a7b3 ea3c df7c e53a 4946 b03c
00000180: 6754 d63b 072e 293c 0a06 fe3b b7a4 8c3c
00000190: 6ae9 9739 dc19 9a3a ff12 ffbc 9ce0 14bd
000001a0: 28f6 1cbd e541 4ebd f629 9fbc 4917 91bb
000001b0: b533 dbbc 1877 76bc f830 1abd 7e48 8f3b
000001c0: 6a68 193a daaa b4ba 16c9 a03d f655 5e3d
000001d0: 83e4 0e3d 2843 853c fc82 9b3c 8880 823c
000001e0: b9a4 7ebb 610f 013c 770f 5e3c e1ca 953b
000001f0: 2e56 ba3c 2f60 223c a0c0 32bb ecc5 59bb
00000200: e5ba d3bc 5994 eabb 7083 233c 0629 7fbb
00000210: bd37 9a3c c2f5 a8bb 02a5 65bc 7793 62ba
00000220: 5e30 f3b9 7bcb e0bc 9f08 813c e3c5 b63c
00000230: ff25 04bd 2cc7 fb3c ec34 2db9 5e07 0bbd
00000240: 5ea0 8dbc 1b60 a4bc 7570 113c 8b64 27bd
00000250: 9628 d5bc 573c dbba d20b 433a 9694 f63b
00000260: b96d efbb a5b6 e3bc 048c 67bc c1af 8a3d
00000270: a855 c3bc aa53 34bc a40b 0c3d f519 32bd
00000280: e9ef 90bc 9c48 b93b 2c72 d4bc b1bc d0bb
00000290: 4a22 33bb 281c 35bc 7da5 73bb c526 d13c
000002a0: 1f8f 66bc bc98 1bbc afbc 6cbc 1262 ff3c
000002b0: 7bc3 c73c 015e 17bc 5e8f 913c 22ef a83c
000002c0: afed 02bd 4cd1 ddbc 3783 1dbd b2d3 80bd
000002d0: 53a5 b13c a2bd 153d 4246 06bd 912c cd3a
000002e0: cbc3 ee3c 2902 eabc fff7 b7bc 5b52 353c
000002f0: 25ca 9abc e0a7 aebc f541 dcbc 6e42 9cbc
00000300: 64e1 84bc b05c 3dbc 2840 26bd 6181 adbc
00000310: a21e efbc 7761 16bd 13d0 90bc 5890 eebb
00000320: 8bcb c33b 7b00 263c 04e0 c539 bdfe ab3c
00000330: 0268 a73c 2a1b 743b b992 923b 9b5e 2dbc
00000340: b1df 4d3a 768e 35bb 367d 7e3c 7272 033c
00000350: 2cdc 733c c686 17bc 6abf 793c fa86 62bc
00000360: 2647 d73c 1e48 2f3d 7d07 24bd ee1d 323c
00000370: d9a2 9c3c b6d4 34bc 6f17 2e3c 512c 493c
00000380: 40dc 07bd 987c 25bc 54b1 9fbc a5e6 29bd
00000390: 1bdd 93bc 2fc7 743a 8159 25bc 51f0 f5bb
000003a0: 26e7 3ebd 4612 63bd 4450 bdbb ee5c 0bba
000003b0: c988 0a3c 07e4 0ebc 2ede 8b3b 07fc 873c
000003c0: 7d39 073b e212 d4ba 4fc5 38bc 365a aa3b
000003d0: 18a1 a4bb 7f57 823c e5cf 53bb 8abf 65ba
000003e0: 5307 7f3c 11c4 a9bc 0602 2d3b 3e01 b5bb
000003f0: 53e1 b1bc 984c bebc 5d84 4bbb 1779 00bd
0.014932545 0.003306042 -0.03261816 -0.030683042 -0.031769037 -0.03822629 -0.016225928 -0.03253863
-0.054500077 -0.0030388348 -0.058863208 -0.078537226 0.04089112 -0.0010282818 -0.06945759 0.062370118
0.0063217725 -0.04200888 0.04196191 0.055778544 0.024385862 0.0006654729 -0.006403211 -0.0026364345
-0.01646049 -0.030393723 -0.013018151 0.004874646 -0.014733643 -0.03638125 -0.0051830164 -0.01340181
-0.015401654 0.0036638193 0.0016155918 -0.0245983 -0.024606045 -0.01821753 -0.010323449 0.0017571101
-0.014440102 -0.008228527 -0.019470567 -0.012559242 0.009792101 -0.0056104646 -0.024950521 -0.014835094
0.03491199 -0.007922012 -0.005630097 0.029065074 -0.014137628 -0.051725548 -0.01941656 0.0010308429
0.0072292164 0.0032078284 -0.003234682 0.03434372 -0.002271472 0.0066415006 0.034453418 0.0002859223
0.031327095 0.0452743 0.01048534 0.017846586 0.021975974 0.0010963302 0.010915282 0.02286302
-0.03632547 -0.011065265 0.001897965 -0.026397435 -0.006999357 0.008371556 -0.003755106 -0.004425612
0.011291774 0.0009778213 -0.02362906 -0.023020046 -0.001329679 -0.02689538 -0.02953676 0.01076427
-0.009937027 -0.042224064 0.014444447 0.02653845 0.019321593 0.028650118 0.0017508528 0.02151789
0.0065408233 0.010325915 0.0077521848 0.017168386 0.0002897487 0.0011756974 -0.031136988 -0.036347017
-0.03832069 -0.05035581 -0.019429188 -0.0044278246 -0.026758054 -0.015043043 -0.037644356 0.0043726554
0.0005852046 -0.0013783828 0.07850854 0.054281197 0.034885895 0.016267374 0.018983357 0.01593043
-0.0038855507 0.007877202 0.013553492 0.004571304 0.022746172 0.009910627 -0.0027275458 -0.0033229543
-0.025845954 -0.0071587977 0.009980068 -0.0038934364 0.018825406 -0.0051562497 -0.014016392 -0.000864319
-0.00046384608 -0.027440777 0.015751181 0.022311157 -0.0322628 0.030734621 -0.0001651828 -0.033942573
-0.017288383 -0.020065358 0.0088769095 -0.04086737 -0.02602033 -0.0016726357 0.0007440421 0.007525037
-0.007306781 -0.027797053 -0.014132503 0.06771804 -0.023844555 -0.011006275 0.03419079 -0.043481786
-0.017692523 0.0056544077 -0.025933348 -0.00637015 -0.002733367 -0.011054076 -0.0037177496 0.025531182
-0.014072209 -0.009496864 -0.014449283 0.031174693 0.024385205 -0.009238721 0.017768558 0.02062184
-0.031964954 -0.02707734 -0.038455214 -0.06290378 0.021685278 0.0365578 -0.032781847 0.0015653541
0.029146096 -0.028565483 -0.022457121 0.011066998 -0.018895218 -0.021320283 -0.02688692 -0.019074645
-0.016220756 -0.011557743 -0.040588528 -0.021179857 -0.029189412 -0.036714043 -0.017677343 -0.0072803907
0.005975192 0.0101319505 0.00037741673 0.020995492 0.020435337 0.0037247636 0.004473057 -0.010581638
0.0007853462 -0.0027703322 0.015532782 0.008022891 0.014884036 -0.009248441 0.015243391 -0.013826126
0.026279043 0.042793386 -0.040046204 0.010871394 0.01912062 -0.011037042 0.010625704 0.012278632
-0.03316903 -0.010100506 -0.019493736 -0.041479725 -0.018049767 0.0009337542 -0.01009214 -0.0075054546
-0.04660716 -0.05543735 -0.0057773907 -0.0005316277 0.008455464 -0.008721358 0.0042684292 0.016599668
0.002063363 -0.0016179944 -0.011277511 0.0051987423 -0.0050240867 0.015910862 -0.003231996 -0.0008764198
0.015565711 -0.020723375 0.002639891 -0.0055238297 -0.021713888 -0.023229882 -0.0031054236 -0.03136548

layer1.1.bn1.weight f4 [16]
00000000: d8b5 503e 9c43 703e 4729 323e 8cc3 5b3e
00000010: c9ef 823e 09ac 423e 1d29 673e d6ae 843e
00000020: 37e8 303e 663e a73e faf2 413e 57c7 113e
00000030: 6a02 6e3e fa3c 8d3e 2d9a 6f3e a7ef 7c3e
0.20381868 0.23463291 0.17398559 0.21461314 0.25573567 0.19010939 0.22574277 0.2591464
0.17276083 0.32664794 0.18940344 0.14236198 0.23243108 0.27585584 0.23398657 0.24700795

layer1.1.bn1.bias f4 [16]
00000000: 3777 3abc 91fb 643d fee0 2abd 0f78 5e3d
00000010: 591a e4bd 3afc bbbc 5b90 253d 0834 283d
00000020: ad5a 1fbd a1b0 30be 9ded 4e3c 83d6 0b3d
00000030: c749 a6bd 9d19 0abd c85d ac3d 6681 6d3d
-0.011380962 0.055903975 -0.041718476 0.054313716 -0.11137838 -0.02294742 0.04042087 0.041065246
-0.038904835 -0.17254879 0.012629894 0.03414012 -0.08119541 -0.033715833 0.08416325 0.057984732

layer1.1.bn1.running_mean f4 [16]
00000000: 16f1 26bd b6bc 26be 3eed 5c3b 8478 aabd
00000010: c1b6 9a3e aa9c 1abb 2d9f e5bd f736 79be
00000020: d6f3 c53d 53b7 39bc 0c3e 133d a123 2dbe
00000030: 239d 1d3e 028d a9be ed18 32be 9a3e 07be
-0.04075726 -0.16282925 0.0033710743 -0.08323768 0.30217555 -0.0023591914 -0.11212001 -0.24337374
0.09665649 -0.011335212 0.035947844 -0.16908123 0.15391974 -0.33115393 -0.17392321 -0.13207474

layer1.1.bn1.running_var f4 [16]
00000000: bb95 843d 96bc 503d 2040 2a3d 856a 893d
00000010: 745e 393e e436 f13d 2d58 f73c f7e3 f73d
00000020: d0a6 fd3c f5d1 183e 90e8 c23d cadf 2c3e
00000030: d4c9 523e 2ec2 bf3d 435c eb3d ce1d e83d
0.06473871 0.0509611 0.04156506 0.0670977 0.18102437 0.11778048 0.030193413 0.12104028
0.030963331 0.14923842 0.09517014 0.16882244 0.20584804 0.09363209 0.11492207 0.1133381

layer1.1.conv2.weight f4 [16, 16, 3, 3]
00000000: f7b9 9abb c557 c13b 73ba fcbc 233e dcbb
00000010: 4202 40bb ff47 56bc b2c7 673c c9af ee3c
00000020: 14d5 8b3c 0580 eabc ca88 31bd 13f1 11bd
00000030: c447 b43b fd9a efbc 3223 a7bc 26a2 f53c
00000040: be73 183c 582c c6bc ab7d a13b fcae 6b3c
00000050: 6f8b 1fbc 36ee 18bc c924 8bbc bccc abbb
00000060: f987 e1bb f7b3 f53c d664 183d 1b80 033d
00000070: 2c41 723d 9479 ab3d 8f6e 643c de84 ac3c
00000080: 1c58 163b 62dc 42bc 4084 21bd 3e95 81bc
00000090: 8274 2f3c b791 ba3c e676 72bc 7223 99bc
000000a0: 6cba 47bd fa06 4bbd d7cb 52bd 2fbf 66bd
000000b0: b1d8 4cbc 0507 383d 65c3 9e3c 140b c93c
000000c0: b5b1 d5ba 8c4c 5dbc 95d7 15bd a5ee cd3c
000000d0: 5e46 193c bf23 ea3b 4ea7 04bb 9be1 febc
000000e0: 316f a7bc b1c5 6abc f592 f5bc 40cc 29bd
000000f0: 9db7 99ba c442 e43b bd9d 3f3b fbc3 9abc
00000100: c874 863c 0653 f23c 5efc 973b cecf 503c
00000110: 4e16 813c 6c8f 993d fa43 293d 9cae ec3c
00000120: fd7b 4039 8523 9dbb 576e 8e3c 734b 7a3c
00000130: b3ed 1b3c ca2d 863c 10ea 92bc fcb2 92bc
00000140: ffe5 7bbc 2766 87bd 594a 3ebd 2ece 023c
00000150: 6bad 11bd 7014 883c e7b1 5c3d 85b0 2c3c
00000160: fee7 a63c cd13 fa3b 1788 263d 9897 863d
00000170: 489b 943d eb6a 2db9 2a3c fbbc ec1d 4abd
00000180: 57fc 48bd eec7 32bd 7922 08bd eeee 213c
00000190: ee17 aebc 1760 a33c 65b6 353c d70c d93c
000001a0: 9812 e53c f499 ff3b 5b7e 263c e8c4 7c3c
000001b0: 785b b63a 4005 73bc ce32 5fbb d35f fd3c
000001c0: 6d06 6e3d 8bf2 823d 8f77 4a3d b198 0c3d
000001d0: fdd7 843b d6ae b03d 8264 b53d 8268 ad3d
000001e0: cca0 0e3d ea00 d43c 0ae2 9b3c 35ca 18bd
000001f0: 7db3 bdbc 680f e5bb 8f0f a7bc 1c6e 7e3b
00000200: c936 69bc d972 b7bb 19e1 8dbc b0ec cbbc
00000210: 29db bdba 0eed e0ba 98c5 5ebc 6cd4 eebb
00000220: 5f2a a3bc 6e52 0abd 7784 e03a c7ce 62bc
00000230: 1abb 04bc 1360 de3b 7e73 143c 026a f8ba
00000240: fcb8 80bd 0947 5bbc b431 d93c 008e 52bd
00000250: 6780 a5bc 31a8 883b ae3b 11bd 9e1c 4c3c
00000260: 0f02 38bc 4516 a03c 0dff 10bd f006 89bd
00000270: 6269 743c aea3 9a3c df28 dbbc d064 f0bb
00000280: 9134 97bc 29b4 03bd 763e c33c e381 723c
00000290: 0588 e33a e689 693d d2e8 9fbc b019 22bd
000002a0: db1f 3c3d 05c8 e43b b999 62bd 0a0d 40bc
000002b0: a5a9 463d faf8 053d 85be f3bc 8e44 033d
000002c0: 8225 2b3d aa78 67bc bc4f 363c 1005 a13c
000002d0: 273e c4b9 255e 003d 1248 0cbd 2ccc e7bc
000002e0: 2c89 fb3c ae17 a6ba 34b6 c7bd f52a d4bc
000002f0: 4c06 443c 4848 19be 5c66 cebc df50 233d
00000300: 999e e7bd ad54 9cbd a1eb f33c 72e7 d7bc
00000310: c375 6cbd 2cb5 e33c 5b2c 81bb 723e eabc
00000320: 4336 82bd 7fa3 c43a 71a0 07bd aa1d 25bd
00000330: 3047 0f3c d78c c4bc 762d 63bd 7af9 c4bc
00000340: b49c 20bd 1bcb 88bd 6cb5 7ebc bfb8 90bd
00000350: 50cd 7dbd 01e3 8fbc 44b3 2cbd 470b 32bd
00000360: 98f5 c6bb 6535 bbb9 9406 04bc 40d6 afbc
00000370: 3351 4cbc 88f6 e539 6069 6ebb 0964 8fbc
00000380: e93b c739 d9ea 49bd c8b0 ebbd ae53 babc
00000390: d38c 0ebe 7d10 d7bd 6e56 2abd 8a96 97bd
000003a0: 850f f93b 51a5 ffbc 6acd dbbd 56b8 77bd
000003b0: 3b73 50bb c4be f7bc d87d e2bc 489c 543b
000003c0: ed71 833d 6045 103d f22c 123d 2622 18bd
000003d0: bd30 113c 7ec2 163d 8bae 56bd d8c5 1cbd
000003e0: 88f5 223d b027 73bc 3081 c83a 5c3f 903d
000003f0: f948 893c f00d 463c 8a82 2d3c 008b 80bd
-0.004721876 0.0059003555 -0.030850625 -0.0067212745 -0.002929822 -0.013078689 0.014146732 0.029136555
0.017069377 -0.028625498 -0.043343343 -0.035630297 0.005501719 -0.029248709 -0.020402525 0.029984545
0.009304939 -0.024191067 0.004928311 0.014384981 -0.009737833 -0.009334138 -0.016985314 -0.005242912
-0.0068826643 0.02999304 0.03720554 0.032104593 0.059144184 0.083727986 0.013942375 0.02105945
0.00229407 -0.011893364 -0.039432764 -0.015818235 0.01070893 0.02277456 -0.014798855 -0.01869366
-0.04876177 -0.0495672 -0.051463928 -0.05633467 -0.012502835 0.04492857 0.01938028 0.024541415
-0.0016303571 -0.01350702 -0.03658255 0.025138209 0.009355156 0.0071453745 -0.0020241323 -0.031113436
-0.020438762 -0.01432936 -0.029977301 -0.041454554 -0.0011727695 0.006965967 0.0029238306 -0.018892279
0.016413108 0.029580604 0.004638239 0.012744857 0.015757706 0.07498059 0.041324593 0.028891854
0.00018356736 -0.004795494 0.017386599 0.015276778 0.009517121 0.016379256 -0.017933875 -0.017907612
-0.01537466 -0.06611281 -0.046457622 0.007983727 -0.035565775 0.016611308 0.0538806 0.010540132
0.020374294 0.007631755 0.04065713 0.06571883 0.0725618 -0.00016538396 -0.030668337 -0.049344942
-0.049068775 -0.0436477 -0.033236 0.009883625 -0.021251645 0.01994328 0.0110908495 0.02649538
0.027962968 0.007800335 0.010161961 0.0154278055 0.0013912758 -0.014832795 -0.0034057382 0.030929482
0.058111597 0.06393918 0.049430426 0.034325305 0.004054068 0.08627097 0.08857061 0.08467199
0.034821317 0.025879342 0.019028682 -0.037302215 -0.023156876 -0.006990362 -0.020393161 0.0038822955
-0.014234253 -0.0055984077 -0.017319249 -0.024893135 -0.001448487 -0.0017160492 -0.013596915 -0.0072885063
-0.019917665 -0.033770017 0.0017129321 -0.013843245 -0.008101249 0.0067863553 0.009060739 -0.0018952491
-0.06285283 -0.013383635 0.026512958 -0.051404953 -0.020202829 0.0041704406 -0.035457306 0.012457995
-0.01123096 0.019541869 -0.035399485 -0.06690776 0.014917703 0.018876877 -0.026752887 -0.0073362365
-0.018457683 -0.032154236 0.023833495 0.014801475 0.0017359263 0.057016276 -0.019520197 -0.03957528
0.045928817 0.006981852 -0.055322383 -0.011721859 0.04850163 0.032708146 -0.029753933 0.0320478
0.041783817 -0.01412789 0.011127409 0.019655734 -0.0003743034 0.031339783 -0.03424842 -0.028295599
0.030705057 -0.0012671852 -0.09751549 -0.02589939 0.011964392 -0.1496898 -0.025195293 0.039872047
-0.11309547 -0.07633338 0.029775443 -0.026355479 -0.057729494 0.02779635 -0.003942055 -0.02859423
-0.06358006 0.0015002339 -0.033111993 -0.040311493 0.008745 -0.023992939 -0.055463277 -0.024044741
-0.039211944 -0.06679364 -0.015546184 -0.070664875 -0.06196338 -0.017564299 -0.04216315 -0.043467786
-0.0060717575 -0.00035707201 -0.008058209 -0.021464467 -0.012470531 0.00043861964 -0.0036378726 -0.017503755
0.00038000874 -0.049296234 -0.11508328 -0.02274498 -0.13920908 -0.10501192 -0.041586332 -0.0740176
0.007600727 -0.031206759 -0.10732539 -0.06047853 -0.0031806964 -0.030242331 -0.027647898 0.0032441784
0.06418214 0.03522241 0.035687394 -0.03714194 0.008861718 0.036806576 -0.05241255 -0.038274616
0.039784938 -0.014841005 0.001529729 0.07043335 0.016758429 0.012088284 0.010590205 -0.06276512

layer1.1.bn2.weight f4 [16]
00000000: 8f74 f03d 11f6 5e3e 6d32 563e 342d 883e
00000010: 8839 4a3e 6605 613e d2f9 753e 6903 673e
00000020: 9a28 5b3e 0689 d93d 2a65 883e e62b 0e3e
00000030: 04bc 7a3e d9c0 643e 5e8a 293e a237 583e
0.11740982 0.21773554 0.20917673 0.26596987 0.19748509 0.21974716 0.2402108 0.22559895
0.21402207 0.10621838 0.26639682 0.13883933 0.24485785 0.2233919 0.16556689 0.21114972

layer1.1.bn2.bias f4 [16]
00000000: b59d 3bbd b2f9 c3bc 786d 40bd e95f c0bd
00000010: eb31 86bb a7e0 973b aed8 3b3d 3a57 af3c
00000020: 9ac3 0a3d 9706 0dbd 1269 963c 5ab8 99bd
00000030: 82dd 59bc bacc e2bc 1f34 eebd 0fdd 0ebd
-0.045804698 -0.023922775 -0.046979398 -0.093932934 -0.004095306 0.004634935 0.04586094 0.021403898
0.033877946 -0.034430113 0.018360648 -0.075058654 -0.0132974405 -0.027685512 -0.11631035 -0.034878787

layer1.1.bn2.running_mean f4 [16]
00000000: 6db1 b13b fa45 9cbe 3da4 efbd bfd4 a1bd
00000010: 0346 90bc 7d5d 2bbe d700 f33d 7a1b bebc
00000020: cf62 3b3c 31df 03bd 23d3 913d e949 553d
00000030: 0431 7abd 337f 013e 0be2 033d aa8b 9abd
0.005422762 -0.30522138 -0.11701248 -0.07901906 -0.01761151 -0.16734882 0.118653946 -0.023206461
0.011437132 -0.032195274 0.07120349 0.05207244 -0.0610819 0.12646179 0.032197993 -0.0754617

layer1.1.bn2.running_var f4 [16]
00000000: a107 693c 1778 cb3c f04f b83c b290 633c
00000010: c4e1 6a3c 95eb d63c cf17 f03c 7b6d c03c
00000020: d311 c03c e7b5 873c be2d c93c 667b f83c
00000030: 98c4 323d ce6a 903c 456c c13c 91e2 ca3c
0.01422301 0.024837537 0.022499055 0.0138894785 0.014336053 0.026235381 0.029308228 0.023489704
0.023446 0.01656623 0.024557944 0.030332278 0.043644518 0.017629053 0.023611197 0.024766238

layer2.0.conv1.weight f4 [32, 16, 3, 3]
00000000: 31b5 cb3c f2d8 1a3d 098a 973c 3afe 7c3d
00000010: 0e32 1abb bdca 52bd 1c37 903d 00b6 77bd
00000020: 2c5f d3bd ffff a53d 9bc9 543d 5562 0abd
00000030: 3446 d2bc 3c95 9abd f17a 61bd 2b87 c9bd
00000040: 916f 92bd 557c 8dbd 38af 29bd 3e21 13bd
00000050: 18f3 81bd 6a6c 95bc 0977 5a3b 9ed2 aeba
00000060: deb2 8cbb 2d9c 88bc 526c 79bc dc4d 0b3d
00000070: 2984 133c ff35 3cbd 7632 033c b24a c6bc
00000080: 9828 4c3c de84 623c 6113 023d 5e6b 083d
00000090: c8c1 4b3c 23e7 b7bc 66ba 41bd f3af a23b
000000a0: 7f98 17bd 1500 1cbd d7d1 31bc 9c6b ffbc
000000b0: b383 9abc 1e01 933c c7c3 a7bc b579 59bd
000000c0: f699 9f3c e411 e9bb 7544 80bc e1bc 2fbd
000000d0: d4b8 ffbc bd65 853c 45bc 173d f1f4 873c
000000e0: f630 0abd a7fb d3bb 54aa 0ebd 6246 5fbd
000000f0: bb3b 85bd 6a1b 5fbd dfca dabc 5fd2 13bd
00000100: fc2a 65bc e147 0d3d 2cf4 173c c69e 003d
00000110: 4ce1 bc3c d85c 053d f9aa 493c 90dc 933c
00000120: a3ea 043d 1a0d acbc b089 37bd 492c 8838
00000130: adc9 a5bc c5d1 36bd 1a7b 94bc aeaf 98bb
00000140: fdf0 553b 2877 8e3a c015 b3bb c395 1ebd
00000150: dd08 2cbc ba2f 62bc b024 20ba 1228 92bc
00000160: 03fe 08bd b2c4 4cbb de65 bfbc 7314 74bc
00000170: 307d 4cbc 1ea1 00bb 2403 753c ecba 7d3c
00000180: 485b 26bc 44da b9bb c896 10bd f1c4 aa3c
00000190: 7d85 823c 4e58 c83c e319 e93c dc30 18bc
000001a0: 4af2 5bbd ff3e 8e3d 9c28 bd3c d0e9 51bd
000001b0: 13f7 7c3d e96d 973d fed4 a43d c906 d53c
000001c0: 012e 2b3d 2873 f23c 6bc9 62bd d4e3 63bd
000001d0: 944d 64bd 98b2 403b 2faa eabc 64fc 38bd
000001e0: cf59 babb b4b9 80bc 353d 003c ee44 a13b
000001f0: a6ee 52bb a24b 003c a971 a03c ac85 b03b
00000200: e74f 7abc 1d56 86ba 016c 13bd df2d 2bbd
00000210: c456 a3bc bc42 2ebd 907c 21bd 7533 14bd
00000220: 28d1 c7bc 9adb 103c 5f94 c23c 45a1 7e3c
00000230: c78d e93b 0f5b a2bc 9bea eebc 250f aebc
00000240: 44a5 7fbd be83 6cbd 42d7 1bbd 235a ba3c
00000250: cd7f ddba 4cd3 253c 8fdc 01bc d779 6f3c
00000260: 9edb 12bd f2fa 24bb 9893 c1bd b6c1 24be
00000270: e32a b13d eefa 2b3c 9f1a 20be 2d78 c13d
00000280: 6d10 d03d f135 da3c 9ee2 d23c 289b 013e
00000290: 848b 333d 13e0 4abd ab89 55bc f203 883d
000002a0: 6cfa 7ebc 6b38 85bd ac76 35bc c1ba 63bd
000002b0: 4e95 57bc 6440 82bd c503 8b3c 9457 c5bc
000002c0: 757b c0bd 7e41 f13c a9c3 85bb a1a2 72bd
000002d0: ba12 883b e551 41ba ba9c 9fbc b04a 1a3d
000002e0: 3425 bd3c 46c5 bdbc e995 373d c9c8 323d
000002f0: 1cfd d0bc 9f77 883d cc47 243c 15b6 54bd
00000300: abbe aebc 46f1 08bc eebb eebc bad7 12bd
00000310: c1bb e1bc a549 a43c 8940 efbc 2b83 a2bc
00000320: 4e44 e23c cdad 31bb 754e 5dbc f9bc fbbc
00000330: 9f70 aebc d8f6 75bd bea1 94bd 8129 7bbc
00000340: 5888 503a fb2a e83c f3c2 80bd fbbd 42bd
00000350: 50b9 26bc c72c 71bc bf92 f6bc e3c7 abbb
00000360: 1941 d93c d9ea 79bd f4b9 b7bd fe67 923d
00000370: a162 84bc 17dd 73bd 9827 2f3d 1be5 8a3d
00000380: 6cbb d63c bce2 d03c af20 233d b20a 323c
00000390: a3b0 a0bd 2c53 913c 8493 ef3c 4784 f8bd
000003a0: 4fb0 c2bd abc1 6c3c d10e e2bc 0535 dc3b
000003b0: 678d 913c 7b94 d3bc 49db 5b3c 940b 793d
000003c0: 8ee0 8c3c a2d5 dd3c 36ac 493b afc8 e03d
000003d0: eb4a be3b 3ada 0dbd fb00 b43d f84f 773d
000003e0: ffd6 903c 1712 01bd 3784 343b 2be0 3cbc
000003f0: e055 dabc fca4 1dbd dc77 90bd be68 093c
0.024866672 0.03780455 0.018498437 0.061765887 -0.002352837 -0.051462878 0.07041761 -0.060476303
-0.10320887 0.08105468 0.05195008 -0.033785183 -0.025668241 -0.075479954 -0.055048887 -0.09840234
-0.07150186 -0.0690848 -0.041426867 -0.035920374 -0.063451946 -0.018240172 0.003333511 -0.0013337915
-0.0042937836 -0.016676033 -0.0152235795 0.0340098 0.009003677 -0.045949932 0.008007636 -0.02420554
0.01246085 0.013825623 0.031756762 0.03330552 0.012436338 -0.022449082 -0.047296904 0.0049648224
-0.037010666 -0.038086016 -0.010853252 -0.031179242 -0.018861627 0.017944869 -0.020479096 -0.053094584
0.019482594 -0.0071127284 -0.015657643 -0.04290474 -0.031216063 0.016283864 0.037044782 0.01659629
-0.0337381 -0.0064692083 -0.034830406 -0.05451048 -0.06505533 -0.054469503 -0.026708065 -0.036089297
-0.013987299 0.034492377 0.009274524 0.03140142 0.023056649 0.032559246 0.012308829 0.018049508
0.03245033 -0.021002341 -0.044809043 6.493234e-05 -0.020237768 -0.044633646 -0.018125106 -0.0046596145
0.003264486 0.0010869252 -0.0054652393 -0.038717043 -0.01050016 -0.013805324 -0.00061089825 -0.017841373
-0.03344537 -0.003124517 -0.023364004 -0.014897454 -0.012481019 -0.0019627283 0.014954362 0.01548646
-0.010153599 -0.0056717712 -0.035300046 0.020845862 0.015932793 0.02445617 0.028454727 -0.009288993
-0.05369786 0.06945609 0.023090653 -0.05124837 0.061759066 0.073940106 0.080484375 0.026004212
0.04179192 0.029595926 -0.05536787 -0.055637196 -0.055738047 0.0029403325 -0.028645603 -0.045162573
-0.0056869755 -0.01571355 0.007827093 0.004921547 -0.0032185703 0.007830532 0.019585447 0.0053870287
-0.015277839 -0.0010249052 -0.035991672 -0.041791793 -0.019938834 -0.04254411 -0.039425433 -0.036181886
-0.024391726 0.00884142 0.02375239 0.015541379 0.007127497 -0.01981881 -0.029164603 -0.021247456
-0.06241347 -0.057742827 -0.038047083 0.022748059 -0.001689905 0.010121178 -0.00792612 0.014616451
-0.035853975 -0.002517399 -0.094519794 -0.1608952 0.08650758 0.010496838 -0.15635155 0.0944675
0.10159383 0.02663705 0.025742825 0.12656844 0.043834224 -0.0495301 -0.013033311 0.066413775
-0.015562635 -0.065049015 -0.011075657 -0.055598024 -0.013158156 -0.06359938 0.01696957 -0.024089612
-0.093985476 0.029450174 -0.0040821624 -0.059237126 0.004152623 -0.0007374569 -0.019483913 0.037668884
0.023089029 -0.023165356 0.0448207 0.043648515 -0.025511317 0.06663441 0.010026883 -0.05193146
-0.021331152 -0.008358305 -0.029142346 -0.035850264 -0.027555348 0.020054648 -0.029205577 -0.019837936
0.02762046 -0.002711165 -0.013507475 -0.030729758 -0.021293936 -0.06004986 -0.072574124 -0.0153297195
0.0007954887 0.028340807 -0.062871836 -0.04754446 -0.010176018 -0.014720148 -0.03009927 -0.005242334
0.026520299 -0.061014984 -0.089710146 0.07148741 -0.016160311 -0.05953702 0.04276237 0.0678198
0.026212417 0.02549874 0.03982609 0.010866808 -0.07846191 0.017739855 0.029245146 -0.12134605
-0.095062844 0.014450471 -0.027594956 0.0067201876 0.017767621 -0.025827637 0.013418981 0.060802057
0.01719692 0.027079407 0.0030772812 0.10975777 0.0058072708 -0.034631945 0.087892495 0.060379
0.017680643 -0.031511392 0.0027544627 -0.011528055 -0.026652277 -0.03848742 -0.07054111 0.008386789

layer2.0.bn1.weight f4 [32]
00000000: 2cd2 8f3e 8ebf a33e 4e77 5a3e bfe0 863e
00000010: c9f0 6f3e a745 543e 80c4 3b3e e72f 893e
00000020: b874 7b3e abfa 4f3e cb00 6e3e cca2 2f3e
00000030: 4cc6 453e e1c6 773e 1e48 573e d5d3 563e
00000040: b851 3c3e 159d 5c3e 91fc 9e3e 5bef 963e
00000050: c7ad 5b3e b379 693e 9b84 6e3e 706a 2b3e
00000060: c67d 433e d911 8e3e 7f81 533e 7088 9d3e
00000070: aa21 683e 5805 9c3e a834 6a3e d057 6a3e
0.28090036 0.31982082 0.21334574 0.26343343 0.23431696 0.20729695 0.18336678 0.2679436
0.24556243 0.20310466 0.2324249 0.17151946 0.19313926 0.2419696 0.21023604 0.20979245
0.18390548 0.21544297 0.31052068 0.2947949 0.2145301 0.22800331 0.23292772 0.16739821
0.19090948 0.27747992 0.20654868 0.30768156 0.22669092 0.30472827 0.2287165 0.2288506

layer2.0.bn1.bias f4 [32]
00000000: b3e3 743d 3eb8 febd cf8e 70bd a2a2 8abc
00000010: d354 453d 4e46 553d c566 8abd 8727 8e3d
00000020: 9924 2f3d 320c d73c 2f32 edbb b5d2 e2bc
00000030: 37a6 59b9 7118 10bd af80 7b3d 9cf0 873d
00000040: 66b3 9cbd 2326 8d39 5ad3 91bc b6f9 c4bd
00000050: b5db ba3c 3397 1a3d a81b 21bd 5369 5e3d
00000060: 1518 863c d221 29b9 f095 cc3c ef92 a6bd
00000070: 38c7 f63c fcbe 013d 7cdc 233d 75d4 133d
0.059787463 -0.12437485 -0.058729943 -0.016923252 0.048176598 0.052069 -0.06757883 0.06941133
0.04275951 0.026250932 -0.0072386484 -0.027688364 -0.00020756653 -0.03517956 0.06140202 0.066376895
-0.07651405 0.0002692203 -0.017800976 -0.09617941 0.022809843 0.03774185 -0.039333016 0.054299664
0.016368905 -0.00016129695 0.02497384 -0.08133494 0.030124292 0.031676278 0.040005192 0.036091287

layer2.0.bn1.running_mean f4 [32]
00000000: aee9 94be 6e5f 41be 454e debe 84b2 053e
00000010: 5bed 8abe 161e 40be 8e3f ee3d 2e22 57be
00000020: cf42 5bbe e861 eb3d fd28 53be f6d1 48be
00000030: 4992 9cbd a83a e9bd 5387 cebe 4e6b 5bbe
00000040: d21b 5bbe 613c 6ebe 32fe a6be 3278 aabe
00000050: eae6 85be 7086 553d 6e77 0f3e aae5 22be
00000060: 2b8a d1bd b4e9 6dbe 25ef 1cbb 5559 05bf
00000070: b7e6 e1bd 6b91 7dbe bbec 64be f124 6cbe
-0.29084533 -0.1888406 -0.4341909 0.1305638 -0.27134213 -0.18761477 0.11633216 -0.21009132
-0.21412204 0.114932835 -0.20621105 -0.19611344 -0.07645089 -0.11388141 -0.4033762 -0.21427652
-0.21397331 -0.2326522 -0.3261581 -0.33294827 -0.26152736 0.052130163 0.14010403 -0.15907922
-0.102314316 -0.23233682 -0.0023946252 -0.52089435 -0.110303335 -0.24762504 -0.2235593 -0.23060967

layer2.0.bn1.running_var f4 [32]
00000000: cc5a ee3d 7cb8 013e c082 b13d adb4 1d3e
00000010: 5dfe 8c3d fe26 ba3d b314 3a3e 7da8 203e
00000020: c962 123d d50f 143e 8c3d 023e 9d07 033e
00000030: 2df3 503d 11ed 4e3e a5bd f03d 64fa ad3d
00000040: 1cda 433e 2493 d23d ade7 323e 80b1 1b3e
00000050: 9d17 513d 1bd4 643e 4c44 1c3e 812a 163e
00000060: ddac a13d 8161 453e 8774 b93d 91da 0d3e
00000070: 1195 093d 5908 dd3d ff5f 613d 5bfc c13d
0.11638412 0.12668031 0.08667517 0.15400954 0.068844534 0.090894684 0.18171959 0.15689273
0.03573874 0.14459164 0.12718791 0.12795873 0.05101316 0.20207621 0.11754922 0.08495024
0.19126171 0.10281971 0.1747119 0.1520443 0.05104791 0.22346537 0.15260428 0.14664651
0.07894299 0.19275476 0.09055429 0.13852908 0.033589426 0.10792608 0.05502319 0.09471961
